cloudpilot/rl_scaling_model.pt (torch, 12654 bytes, 6 tensors)

weight f4 [32, 5]
-0.3296051 -0.21589704 0.14353697 0.20165582 -0.39940888 -0.09220704 0.40900397 0.09435209
0.37328005 0.2190944 0.2598796 0.033651497 0.07467154 0.15750423 -0.19680984 -0.0703366
-0.3391704 0.21601926 -0.11837795 -0.10405306 0.3355009 0.16872424 0.28978837 -0.20824717
0.13343431 -0.38169888 0.03154531 -0.3836988 -0.3997835 0.44130135 -0.353932 -0.37816906
-0.320683 0.44340926 0.3022789 -0.16091196 0.005301597 0.055964716 -0.14845943 0.06776844
0.32462835 0.42976755 0.16414167 0.42427796 -0.27232796 0.26030126 0.07443255 0.35105258
0.0062464722 0.2961452 0.37611896 -0.15303439 -0.09701348 -0.38879228 0.35717532 0.21697927
-0.022291454 0.31617227 0.19076623 0.17507707 -0.16285346 0.06471213 -0.19224055 -0.46036527
-0.4111325 0.04455301 0.19212767 -0.43095154 -0.12643899 0.41914424 -0.08847061 0.1382584
-0.070157915 0.03837222 0.24392599 -0.23218581 -0.16387318 0.2835012 -0.44913146 0.19507287
0.17948496 -0.0036726014 -0.2639723 0.23552202 -0.10366267 0.058379762 -0.023435729 -0.088086374
0.33849674 -0.21568967 -0.17545384 0.09761208 -0.43271998 -0.3846497 0.3016641 0.37986645
0.41564783 -0.2333591 0.23571433 0.13348764 0.2471594 -0.0059562353 -0.21506594 0.2336558
-0.1738666 0.15409788 0.2685973 -0.19591035 0.2255036 0.36996645 -0.2103863 -0.07876074
-0.29185098 -0.040019177 0.3543408 -0.3883524 0.21283041 0.07378342 0.3390198 0.04591275
-0.11566443 0.2696535 0.24494407 -0.12430582 0.1887036 -0.0521782 -0.38815916 0.030214904
0.1812106 0.3116552 0.473837 -0.16570981 -0.024051648 -0.10905153 0.0977215 -0.31391668
-0.3466254 -0.3993929 0.2696012 0.30010954 -0.36599135 -0.44676802 -0.40259638 -0.36471805
-0.19521469 0.1960186 -0.13854955 0.24468686 0.26068303 -0.30798241 -0.35232997 0.31745747
0.16724803 0.09157503 -0.23108277 -0.24159127 0.32304308 0.45966697 0.1191056 -0.092503004
00000000: 00c2 a8be 1d14 5dbe 5bfb 123e dd7e 4e3e
00000010: 527f ccbe 0bd7 bcbd f868 d13e ab3b c13d
00000020: 901e bf3e 485a 603e f00e 853e 27d6 093d
00000030: 64ed 983d ca48 213e 8588 49be a30c 90bd
00000040: bea7 adbe 2734 5d3e 2370 f2bd c519 d5bd
00000050: c6c6 ab3e 0cc6 2c3e 245f 943e bf3e 55be
00000060: 01a3 083e 096e c3be a835 013d 2b74 c4be
00000070: 6cb0 ccbe 40f2 e13e 9336 b5be 609f c1be
00000080: 9030 a4be 8a06 e33e 4dc4 9a3e 1bc6 24be
00000090: 05b9 ad3b 423b 653d c005 18be 2eca 8a3d
000000a0: b035 a63e 7e0a dc3e c114 283e f63a d93e
000000b0: 926e 8bbe 3546 853e 1870 983d 2abd b33e
000000c0: 35af cc3b 58a0 973e aa92 c03e 0cb5 1cbe
000000d0: 01af c6bd c80f c7be afdf b63e d02f 5e3e
000000e0: 919c b6bc 55e1 a13e 3958 433e 6747 333e
000000f0: 0fc3 26be cb87 843d b5da 44be ffb4 ebbe
00000100: f67f d2be 387d 363d 1ebd 443e aea5 dcbe
00000110: 3979 01be 139a d63e 1430 b5bd 9c93 0d3e
00000120: f4ae 8fbd 302c 1d3d bcc7 793e 1ec2 6dbe
00000130: 5fce 27be 1227 913e 8ff4 e5be 2fc1 473e
00000140: e8ca 373e 07b0 70bb 6127 87be af2c 713e
00000150: 184d d4bd 9e1f 6f3d 49fc bfbc a166 b4bd
00000160: 724f ad3e c1dd 5cbe 2caa 33be d8e8 c73d
00000170: 798d ddbe cef0 c4be b873 9a3e db7d c23e
00000180: cbcf d43e b0f5 6ebe 195f 713e fcb0 083e
00000190: 5b17 7d3e 862c c3bb 3f3a 5cbe 7743 6f3e
000001a0: 160a 32be d6cb 1d3e 9685 893e b99c 48be
000001b0: 6aea 663e 3e6c bd3e 826f 57be 504d a1bd
000001c0: 7e6d 95be 26eb 23bd 286c b53e 20d6 c6be
000001d0: 37f0 593e c31b 973d 0194 ad3e 020f 3c3d
000001e0: 79e1 ecbd 0610 8a3e 9ed2 7a3e 0d94 febd
000001f0: 843b 413e cfb8 55bd ccbc c6be 3f85 f73c
00000200: 468f 393e 4591 9f3e c39a f23e d5af 29be
00000210: f607 c5bc 6956 dfbd 3622 c83d b0b9 a0be
00000220: e278 b1be 3a7d ccbe 2b09 8a3e f5a7 993e
00000230: 3863 bbbe c7be e4be 1d21 cebe 53bc babe
00000240: 5ce6 47be 1ab9 483e efdf 0dbe 318f 7a3e
00000250: 3f78 853e dfaf 9dbe 9864 b4be c989 a23e
00000260: 1143 2b3e b08b bb3d f6a0 6cbe b463 77be
00000270: e765 a53e 7859 eb3e a3ed f33d 3772 bdbd

bias f4 [32]
0.14199558 0.3504858 0.050928064 -0.06703711 0.19143401 0.40705034 0.28500605 0.31848362
0.044996902 0.33050513 0.39628568 0.19582255 0.17369078 -0.3171737 -0.40573195 -0.14413205
-0.29926503 -0.13411315 -0.3025453 -0.40012598 -0.30075827 -0.097583055 0.40724385 0.117204525
-0.20027056 -0.25000107 0.15790331 -0.27265224 -0.13040775 -0.30132568 -0.37236932 0.05904652
00000000: 4a67 113e e072 b33e f299 503d c14a 89bd
00000010: 4707 443e e768 d03e 50ec 913e 4910 a33e
00000020: ac4e 383d f837 a93e f5e5 ca3e b585 483e
00000030: ffdb 313e 9764 a2be 19bc cfbe 5a97 13be
00000040: 4439 99be f554 09be 38e7 9abe 50dd ccbe
00000050: fdfc 99be a0d9 c7bd 4482 d03e ed08 f03d
00000060: ba13 4dbe 2400 80be 68b1 213e 1399 8bbe
00000070: 9c89 05be 5c47 9abe 31a7 bebe c4da 713d

weight f4 [32, 32]
0.07947075 0.03332635 -0.07267918 0.004417572 0.023464868 -0.15168472 0.13686936 -0.0057277796
-0.07284395 -0.13201131 0.0012732707 0.0027270045 0.09953646 -0.18927246 0.15278463 0.003011648
0.122702196 -0.10158626 -0.12987755 0.14660591 0.0936904 -0.20426865 0.04700673 -0.15481916
-0.07089487 -0.17697889 0.119452134 -0.16631849 0.02254954 0.006180609 -0.1057554 -0.07272544
0.11248325 -0.16921988 0.1584075 0.055509374 -0.057072327 0.11885165 -0.13597597 0.12103483
-0.09883768 -0.011492888 0.07514094 0.13535483 0.1447018 -0.14390373 0.07643606 0.053345118
0.07437064 -0.16664757 -0.063146874 -0.09044968 0.07997243 0.06029676 -0.08723286 0.063241325
-0.121776745 -0.0924777 0.058001984 -0.08582714 -0.10888415 0.062599935 -0.04147336 0.06980414
-0.16291016 0.018639416 -0.03181626 0.054596484 -0.11414846 -0.16913764 0.019501626 0.16232403
-0.10198772 -0.0408808 -0.12069618 0.091643766 0.032429263 -0.16845235 0.13721685 -0.095524795
-0.024711102 -0.020536438 -0.052315935 -0.15565328 0.1262513 0.0074108243 -0.14363304 0.010195896
0.015240431 0.17523228 -0.0016046166 -0.091446415 0.12752576 0.10856618 0.06725325 0.06672543
0.08693892 -0.002623794 0.11261249 -0.06481038 0.022927977 0.17568356 0.20991279 0.14568977
0.025351008 0.16854683 0.1967464 -0.04974373 0.016637292 -0.035257097 -0.1683257 0.056222457
-0.011562655 -0.113159314 -0.15438409 -0.120215766 -0.045814164 -0.12781268 -0.12278364 -0.021282181
-0.121613994 -0.11527234 0.069479965 -0.14787848 0.13356356 -0.009243745 -0.011415939 -0.11545128
-0.10941465 -0.121435605 0.08715208 0.0016107857 0.036858812 0.110838756 -0.110788785 -0.10160583
-0.1758267 0.10079725 0.03827429 0.057575822 -0.13899927 0.011496529 -0.032202616 -0.15355217
0.16422202 -0.056946248 0.15223317 -0.041863635 0.015326589 -0.103732936 0.017180994 -0.10543159
0.00038939714 0.12975414 -0.035124525 0.13183288 -0.10771059 0.17359088 0.03159623 0.12684779
0.031276565 -0.14312145 0.112804644 0.101625666 0.0058306516 -0.16045983 0.09782234 0.07721715
0.09006796 -0.14899325 -0.060733683 -0.17746036 -0.1102394 -0.09593084 0.015368432 0.11573307
-0.016380072 0.16191098 0.12708388 0.025133522 0.07926886 0.1543734 0.020223092 -0.06974061
0.03584872 0.13797759 -4.588653e-05 -0.10791285 0.120285854 -0.17348778 -0.14615326 0.12513444
0.06678362 0.17364891 0.1409585 0.14488341 -0.083444454 -0.058562484 -0.028052643 -0.03082535
0.20534877 0.15869027 0.15475632 0.091992944 -0.13777776 0.16343063 -0.07506351 0.03363283
0.114794955 0.020516148 0.02334994 -0.06427439 0.042112734 -0.045262676 0.18102486 0.19134174
0.15639654 -0.14083357 0.14138329 -0.11391792 0.16906212 -0.13276544 -0.06860141 0.052550387
-0.056039393 -0.0045239083 0.1856568 0.08622795 0.07026389 0.07375923 0.052902702 0.016841428
0.14530985 -0.09031127 0.21267633 0.08825715 -0.100897804 -0.11618499 -0.027395457 -0.10587226
0.013988049 0.09906589 0.16877179 0.086882874 -0.038738675 -0.04123537 0.079894274 -0.044230223
0.0047032135 -0.12157574 0.019954024 0.060987867 -0.033222213 0.029353797 0.12557979 0.03898325
00000000: 90c1 a23d 3681 083d d2d8 94bd 48c1 903b
00000010: 6539 c03c 3d53 1bbe 7b27 0c3e 19b0 bbbb
00000020: 352f 95bd f92d 07be e0e3 a63a 8bb7 323b
00000030: c6d9 cb3d a4d0 41be 9373 1c3e 125f 453b
00000040: 4a4b fb3d 750c d0bd 9ffe 04be dc1f 163e
00000050: c1e0 bf3d cd2b 51be 218a 403d ea88 1ebe
00000060: 5431 91bd f439 35be 52a3 f43d 654f 2abe
00000070: d0b9 b83c b586 ca3b 4a96 d8bd 13f1 94bd
00000080: 9e5d e63d fa47 2dbe 9335 223e cc5d 633d
00000090: acc4 69bd 7e68 f33d 493d 0bbe 1ce1 f73d
000000a0: 696b cabd ab4c 3cbc 7ee3 993d 759a 0a3e
000000b0: b52c 143e 805b 13be 828a 9c3d 6980 5a3d
000000c0: a24f 983d a9a5 2abe 2653 81bd af3d b9bd
000000d0: 96c8 a33d bcf9 763d 24a7 b2bd ab84 813d
000000e0: 1666 f9bd f364 bdbd 7d93 6d3d 24c6 afbd
000000f0: a7fe debd 6534 803d f8df 29bd 79f5 8e3d
00000100: ecd1 26be b0b1 983c c451 02bd 90a0 5f3d
00000110: abc6 e9bd 6b32 2dbe e0c1 9f3c 4538 263e
00000120: f0de d0bd a072 27bd 8f2f f7bd baaf bb3d
00000130: 8cd4 043d c67e 2cbe 9382 0c3e 81a2 c3bd
00000140: f06e cabc 083c a8bc 3c49 56bd 9363 1fbe
00000150: 0548 013e 80d6 f23b 8a14 13be b00c 273c
00000160: 00b3 793c 1770 333e 0052 d2ba 4248 bbbd
00000170: 1d96 023e f257 de3d 12bc 893d 58a7 883d
00000180: 080d b23d f5f3 2bbb 61a1 e63d 4ebb 84bd
00000190: 74d3 bb3c 64e6 333e 61f3 563e b32f 153e
000001a0: ebac cf3c 8a97 2c3e e377 493e 15c0 4bbd
000001b0: ee4a 883c bf69 10bd 935d 2cbe 8549 663d
000001c0: 4a71 3dbc 12c0 e7bd dd16 1ebe af33 f6bd
000001d0: a2a7 3bbd 54e1 02be fd75 fbbd f857 aebc
000001e0: c210 f9bd e813 ecbd 834b 8e3d 756d 17be
000001f0: e3c4 083e 1473 17bc eb09 3bbc b871 ecbd
00000200: ca14 e0bd 3bb3 f8bd ca7c b23d 0021 d33a
00000210: 44f9 163d 6eff e23d 3be5 e2bd b816 d0bd
00000220: ea0b 34be ca6e ce3d 80c5 1c3d a0d4 6b3d
00000230: d355 0ebe f05b 3c3c e4e6 03bd c83c 1dbe
00000240: d129 283e 7840 69bd 03e3 1b3e 3479 2bbd
00000250: 601c 7b3c ef71 d4bd 28bf 8c3c 84ec d7bd
00000260: 0028 cc39 45de 043e bcde 0fbd 33ff 063e
00000270: 5f97 dcbd cfc1 313e 0c6b 013d 63e4 013e
00000280: db1b 003d 6e8e 12be 1f06 e73d 1e21 d03d
00000290: 0d0f bf3b 954f 24be 1457 c83d 0624 9e3d
000002a0: 8d75 b83d b091 18be e2c3 78bd 2bb8 35be
000002b0: 32c5 e1bd 6377 c4bd e0cb 7b3c 7605 ed3d
000002c0: 802f 86bc fecb 253e 4722 023e d1e4 cd3c
000002d0: b657 a23d 1014 1e3e e6aa a53c 2ad4 8ebd
000002e0: 1cd6 123d ff49 0d3e 4976 40b8 6a01 ddbd
000002f0: 6e58 f63d c8a6 31be 33a9 15be 3e23 003e
00000300: dac5 883d 05d1 313e 6d57 103e 515c 143e
00000310: ede4 aabd 37df 6fbd a8ce e5bc 7285 fcbc
00000320: f346 523e b47f 223e 7178 1e3e cc66 bc3d
00000330: 9d15 0dbe 5c5a 273e e6ba 99bd 94c2 093d
00000340: 9e19 eb3d 7b11 a83c 6048 bf3c 4ba2 83bd
00000350: 677e 2c3d 5b65 39bd 955e 393e 17ef 433e
00000360: 6a26 203e ad36 10be c8c6 103e cc4d e9bd
00000370: 9f1e 2d3e aaf3 07be e57e 8cbd 133f 573d
00000380: 9089 65bd 4b3d 94bb d11c 3e3e 4898 b03d
00000390: 84e6 8f3d 140f 973d 81b0 583d 09f7 893c
000003a0: 1bcc 143e 1df5 b8bd d3c7 593e 2ac0 b43d
000003b0: 82a3 cebd 65f2 edbd 706c e0bc 8ed3 d8bd
000003c0: 212e 653c 0fe3 ca3d 83d2 2c3e a6ef b13d
000003d0: 72ac 1ebd 6be6 28bd 9c9f a33d c02a 35bd
000003e0: 6a1d 9a3b b4fc f8bd 9f76 a33c 6ace 793d
000003f0: 0414 08bd 6077 f03c fd97 003e e6ac 1f3d

bias f4 [32]
0.12632781 -0.09965606 -0.10293988 0.17144448 -0.08676833 0.021773959 -0.07942964 0.11486079
0.060007133 0.15749007 0.12293925 -0.15983796 -0.1504133 -0.06193795 0.11426152 -0.16552664
-0.021312643 -0.0043031704 0.031744592 0.043165773 -0.08121412 0.20548876 0.142 -0.04412595
0.018549502 -0.025453568 0.055282 -0.15555668 -0.01876875 0.03639675 -0.049991325 -0.035435844
00000000: 145c 013e 7a18 ccbd 25d2 d2bd 248f 2f3e
00000010: 98b3 b1bd 4d5f b23c 02ac a2bd 223c eb3d
00000020: 0aca 753d 1445 213e 93c7 fb3d 90ac 23be
00000030: f205 1abe a6b2 7dbd f201 ea3d d17f 29be
00000040: da97 aebc 9c01 8dbb 9e06 023d 98ce 303d
00000050: 9753 a6bd a56b 523e 7368 113e 6abd 34bd
00000060: 20f5 973c 0084 d0bc 616f 623d 404a 1fbe
00000070: ecc0 99bc c214 153d b4c3 4cbd 2d25 11bd

weight f4 [3, 32]
-0.0014867439 -0.11586175 -0.14703843 0.15921314 -0.10237699 -0.15262634 0.11081536 0.21382384
0.15640143 0.1604621 0.14536764 0.13057558 0.032704264 0.1957082 -0.17622897 0.08830963
0.14284289 0.105762504 -0.12833402 -0.09405763 -0.037434813 0.14467284 -0.07778076 0.1007928
0.008625373 0.09964938 -0.026162647 -0.052883275 0.06659892 -0.0361952 -0.1374681 -0.11602116
-0.07692052 0.18947339 -0.17217416 0.17540061 -0.070748754 -0.07554686 0.1189665 -0.13914633
-0.14542659 0.1010546 -0.027545126 -0.104633994 -0.14668515 0.036250327 -0.04161775 -0.17528634
-0.06317036 0.14712274 0.1538503 -0.11761919 -0.082170255 -0.009811686 0.15576729 0.13596882
0.14136069 0.0759613 -0.021480108 0.105375156 0.054372486 0.19130763 0.0031604618 0.11845592
-0.029173376 -0.051957704 0.088455126 -0.028156776 0.10716914 -0.01934367 0.0980736 0.20053792
0.20486704 -0.02522316 -0.030419597 0.055467162 0.04985258 -0.08342688 0.15711133 0.16894434
0.06364745 -0.12954348 0.16475017 -0.1283252 -0.02825171 0.05408117 0.14708242 0.1157102
-0.1765311 0.14392045 -0.08335806 0.06534715 0.095500715 0.15727979 -0.15559788 0.061551448
00000000: d9de c2ba ed48 edbd 3e91 16be c508 233e
00000010: 07ab d1bd 144a 1cbe 2af3 e23d a3f4 5a3e
00000020: b227 203e 2d50 243e 41db 143e 9bb5 053e
00000030: e8f4 053d bb67 483e 5e75 34be aedb b43d
00000040: 6845 123e 039a d83d fe69 03be 49a1 c0bd
00000050: 3f55 19bd 1e25 143e 854b 9fbd 756c ce3d
00000060: 7051 0d3c f914 cc3d 0c53 d6bc 229c 58bd
00000070: 0465 883d 6b41 14bd 70c4 0cbe 809c edbd
00000080: 8188 9dbd 5005 423e 6c4e 30be 389c 333e
00000090: b9e4 90bd 50b8 9abd b5a4 f33d 607c 0ebe
000000a0: b5ea 14be b7f5 ce3d 51a6 e1bc 594a d6bd
000000b0: a234 16be 397b 143d 6077 2abd 437e 33be
000000c0: 765f 81bd 58a7 163e ef8a 1d3e 54e2 f0bd
000000d0: e148 a8bd 32c1 20bc 7681 1f3e 693b 0b3e
000000e0: dbc0 103e 9991 9b3d 0df7 afbc eece d73d
000000f0: afb5 5e3d 26e6 433e c01f 4f3b 0499 f23d
00000100: 01fd eebc 9ad1 54bd f627 b53d 0aa9 e6bc
00000110: 7e7b db3d 9e76 9ebc d0da c83d d059 4d3e
00000120: aac8 513e cda0 cebc 8532 f9bc 8931 633d
00000130: 3832 4c3d b6db aabd cbe1 203e bfff 2c3e
00000140: 9859 823d 0ca7 04be 45b4 283e ae67 03be
00000150: 2170 e7bc 3884 5d3d c69c 163e 78f9 ec3d
00000160: 92c4 34be e25f 133e a1b7 aabd bad4 853d
00000170: e195 c33d f40d 213e 0d55 1fbe 5f1d 7c3d

bias f4 [3]
-0.019043159 0.2012701 -0.036588002
00000000: 6600 9cbc c019 4e3e 4ddd 15bd
